…
[https://github.com/bojone/n2n-ocr-for-qqcaptcha](https://github.com/bojone/n2n-ocr-for-qqcaptcha)

模型非常简洁，也很常规（只是单文件，能有多复杂？）

就是用4个卷积层提取了图片特征，然后将这个图片特征分别接4个softmax，每个都分为26类，注意这里不能图方便用TimeDistributed，TimeDistributed是权值共享的，而我们这里要对同一个特征分别输出不同的标签，权值相同结果不就也相同了么？另外要注意，我的Keras是用theano做后端，不是tensorflow，两者对图像的处理有所不同，因此用tensorlfow的朋友要自己调整过来。

> \\_\\_\\_\_\_\_\_\_\_\_\_\_\_\_\_\_\_\_\_\_\_\_\_\_\_\_\_\_\_\_\_\_\_\_\_\_\_\_\_\_\_\_\_\_\_\_\_\_\_\_\_\_\_\_\_\_\_\_\_\_\_
>
> Layer (type) Output Shape Param # Connected to
>
> =============================================================
>
> input\_15 (InputLayer) (None, 3, 129, 53) 0
>
> \\_\\_\\_\_\_\_\_\_\_\_\_\_\_\_\_\_\_\_\_\_\_\_\_\_\_\_\_\_\_\_\_\_\_\_\_\_\_\_\_\_\_\_\_\_\_\_\_\_\_\_\_\_\_\_\_\_\_\_\_\_\_
>
> convolution2d\_40 (Convolution2D) (None, 32, 127, 51) 896 input\_15\[0\]\[0\]
>
> \\_\\_\\_\_\_\_\_\_\_\_\_\_\_\_\_\_\_\_\_\_\_\_\_\_\_\_\_\_\_\_\_\_\_\_\_\_\_\_\_\_\_\_\_\_\_\_\_\_\_\_\_\_\_\_\_\_\_\_\_\_\_
>
> maxpooling2d\_48 (MaxPooling2D) (None, 32, 63, 25) 0 convolution2d\_40\[0\]\[0\]
>
> \\_\\_\\_\_\_\_\_\_\_\_\_\_\_\_\_\_\_\_\_\_\_\_\_\_\_\_\_\_\_\_\_\_\_\_\_\_\_\_\_\_\_\_\_\_\_\_\_\_\_\_\_\_\_\_\_\_\_\_\_\_\_
>
> convolution2d\_41 (Convolution2D) (None, 32, 61, 23) 9248 maxpooling2d\_48\[0\]\[0\]
>
> \\_\\_\\_\_\_\_\_\_\_\_\_\_\_\_\_\_\_\_\_\_\_\_\_\_\_\_\_\_\_\_\_\_\_\_\_\_\_\_\_\_\_\_\_\_\_\_\_\_\_\_\_\_\_\_\_\_\_\_\_\_\_
>
> maxpooling2d\_49 (MaxPooling2D) (None, 32, 30, 11) 0 convolution2d\_41\[0\]\[0\]
>
> \\_\\_\\_\_\_\_\_\_\_\_\_\_\_\_\_\_\_\_\_\_\_\_\_\_\_\_\_\_\_\_\_\_\_\_\_\_\_\_\_\_\_\_\_\_\_\_\_\_\_\_\_\_\_\_\_\_\_\_\_\_\_
>
> activation\_37 (Activation) (None, 32, 30, 11) 0 maxpooling2d\_49\[0\]\[0\]
>
> \\_\\_\\_\_\_\_\_\_\_\_\_\_\_\_\_\_\_\_\_\_\_\_\_\_\_\_\_\_\_\_\_\_\_\_\_\_\_\_\_\_\_\_\_\_\_\_\_\_\_\_\_\_\_\_\_\_\_\_\_\_\_
>
> convolution2d\_42 (Convolution2D) (None, 32, 28, 9) 9248 activation\_37\[0\]\[0\]
>
> \\_\\_\\_\_\_\_\_\_\_\_\_\_\_\_\_\_\_\_\_\_\_\_\_\_\_\_\_\_\_\_\_\_\_\_\_\_\_\_\_\_\_\_\_\_\_\_\_\_\_\_\_\_\_\_\_\_\_\_\_\_\_
>
> maxpooling2d\_50 (MaxPooling2D) (None, 32, 14, 4) 0 convolution2d\_42\[0\]\[0\]
>
> \\_\\_\\_\_\_\_\_\_\_\_\_\_\_\_\_\_\_\_\_\_\_\_\_\_\_\_\_\_\_\_\_\_\_\_\_\_\_\_\_\_\_\_\_\_\_\_\_\_\_\_\_\_\_\_\_\_\_\_\_\_\_
>
> activation\_38 (Activation) (None, 32, 14, 4) 0 maxpooling2d\_50\[0\]\[0\]
>
> \\_\\_\\_\_\_\_\_\_\_\_\_\_\_\_\_\_\_\_\_\_\_\_\_\_\_\_\_\_\_\_\_\_\_\_\_\_\_\_\_\_\_\_\_\_\_\_\_\_\_\_\_\_\_\_\_\_\_\_\_\_\_
>
> convolution2d\_43 (Convolution2D) (None, 32, 12, 2) 9248 activation\_38\[0\]\[0\]
>
> \\_\\_\\_\_\_\_\_\_\_\_\_\_\_\_\_\_\_\_\_\_\_\_\_\_\_\_\_\_\_\_\_\_\_\_\_\_\_\_\_\_\_\_\_\_\_\_\_\_\_\_\_\_\_\_\_\_\_\_\_\_\_
>
> maxpooling2d\_51 (MaxPooling2D) (None, 32, 6, 1) 0 convolution2d\_43\[0\]\[0\]
>
> \\_\\_\\_\_\_\_\_\_\_\_\_\_\_\_\_\_\_\_\_\_\_\_\_\_\_\_\_\_\_\_\_\_\_\_\_\_\_\_\_\_\_\_\_\_\_\_\_\_\_\_\_\_\_\_\_\_\_\_\_\_\_
>
> flatten\_15 (Flatten) (None, 192) 0 maxpooling2d\_51\[0\]\[0\]
>
> \\_\\_\\_\_\_\_\_\_\_\_\_\_\_\_\_\_\_\_\_\_\_\_\_\_\_\_\_\_\_\_\_\_\_\_\_\_\_\_\_\_\_\_\_\_\_\_\_\_\_\_\_\_\_\_\_\_\_\_\_\_\_
>
> activation\_39 (Activation) (None, 192) 0 flatten\_15\[0\]\[0\]
>
> \\_\\_\\_\_\_\_\_\_\_\_\_\_\_\_\_\_\_\_\_\_\_\_\_\_\_\_\_\_\_\_\_\_\_\_\_\_\_\_\_\_\_\_\_\_\_\_\_\_\_\_\_\_\_\_\_\_\_\_\_\_\_
>
> dense\_63 (Dense) (None, 26) 5018 activation\_39\[0\]\[0\]
>
> \\_\\_\\_\_\_\_\_\_\_\_\_\_\_\_\_\_\_\_\_\_\_\_\_\_\_\_\_\_\_\_\_\_\_\_\_\_\_\_\_\_\_\_\_\_\_\_\_\_\_\_\_\_\_\_\_\_\_\_\_\_\_
>
> dense\_64 (Dense) (None, 26) 5018 activation\_39\[0\]\[0\]
>
> \\_\\_\\_\_\_\_\_\_\_\_\_\_\_\_\_\_\_\_\_\_\_\_\_\_\_\_\_\_\_\_\_\_\_\_\_\_\_\_\_\_\_\_\_\_\_\_\_\_\_\_\_\_\_\_\_\_\_\_\_\_\_
>
> dense\_65 (Dense) (None, 26) 5018 activation\_39\[0\]\[0\]
>
> \\_\\_\\_\_\_\_\_\_\_\_\_\_\_\_\_\_\_\_\_\_\_\_\_\_\_\_\_\_\_\_\_\_\_\_\_\_\_\_\_\_\_\_\_\_\_\_\_\_\_\_\_\_\_\_\_\_\_\_\_\_\_
>
> dense\_66 (Dense) (None, 26) 5018 activation\_39\[0\]\[0\]
>
> =============================================================
>
> Total params: 48712
>
> \\_\\_\\_\_\_\_\_\_\_\_\_\_\_\_\_\_\_\_\_\_\_\_\_\_\_\_\_\_\_\_\_\_\_\_\_\_\_\_\_\_\_\_\_\_\_\_\_\_\_\_\_\_\_\_\_\_\_\_\_\_\_

经过几十轮训练后，得到模型，第1、2、3、4字识别的准确率分别是0.89、0.72、0.73、0.87，这样，四个全对的准确率应该是

0.89\\times0.72\\times0.73\\times0.87\\approx 0.41

即应该会有41%的全对率，经过实际测试，效果还更好一些，全对率为46%，这样差不多两张就有一张识别正确，应该在不少情形都很实用了。当然，这个准确率只针对这批样本的，实际准确率可能还要更低一些，但是估计10%应该有吧？^\_^
…
