…
 过程是这样的：我找了1000篇文章，每篇若干千字，将每篇文章均匀打印到一张图片上去，然后裁剪开，就得到一批样本了（sample），后面的data是一个迭代器，用来生成正负样本，因为一次性载入内存吃不消，所以只能通过迭代器来做了。不过我还是很偷懒的，因为即便这样，在我的服务器上也耗了18G内存。sample_shuffle_totally是将sample全部打乱后，得到的任意负样本；sample_shuffle_in_line则只是在同一行内打乱，这样得到的是行距、行位置都相同，仅仅是内容不同而导致的负样本。每一轮迭代我都洗乱一次，这样能够提升数据的性能（data argument），使得实际参与训练的负样本数大大增加。 要注意的是，我们考虑水平相邻，但python读矩阵的时候，是从上往下读的，不是从左往右，因此我们要对图片矩阵进行转置，此外，还对图片进行了归一化，原来是0～255范围的灰度图，归一化到0～1之间，这样能够加快收敛，最后就是用1减去了图片矩阵，实际上对图片做了个颜色反转，“白底黑字”变成了“黑底白字”。因为在训练网络时，我们希望输入有大量的0，这样可以加快收敛，但是颜色中，白色的255，黑色才是0，因此，“黑底白字”比“白底黑字”更快收敛。 训练模型 # 然后就用它们训练一个CNN了，这个过程太常规了，用的就是三个卷积层和池化层的堆叠，然后做一个softmax分类器，就这么简单～ 模型的结构： ______________________________________________________________ 
Layer (type) Output Shape Param # Connected to 
============================================================== 
input_2 (InputLayer) (None, 144, 180) 0 
______________________________________________________________ 
convolution1d_4 (Convolution1D) (None, 143, 32) 11552 input_2[0][0] 
______________________________________________________________ 
maxpooling1d_4 (MaxPooling1D) (None, 71, 32) 0 convolution1d_4[0][0] 
______________________________________________________________ 
convolution1d_5 (Convolution1D) (None, 70, 32) 2080 maxpooling1d_4[0][0] 
______________________________________________________________ 
maxpooling1d_5 (MaxPooling1D) (None, 35, 32) 0 convolution1d_5[0][0] 
______________________________________________________________ 
convolution1d_6 (Convolution1D) (None, 34, 32) 2080 maxpooling1d_5[0][0] 
______________________________________________________________ 
maxpooling1d_6 (MaxPooling1D) (None, 17, 32) 0 convolution1d_6[0][0] 
______________________________________________________________ 
flatten_2 (Flatten) (None, 544) 0 maxpooling1d_6[0][0] 
______________________________________________________________ 
dense_3 (Dense) (None, 32) 17440 flatten_2[0][0] 
______________________________________________________________ 
dense_4 (Dense) (None, 1) 33 dense_3[0][0] 
============================================================== 
Total params: 33185 
______________________________________________________________ 代码： from keras.layers import Input, Convolution1D, MaxPooling1D, Flatten, Dense
from keras.models import Model
input = Input((144, 180))
cnn = Convolution1D(32, 2)(input)
cnn = MaxPooling1D(2)(cnn)
cnn = Convolution1D(32, 2)(cnn)
cnn = MaxPooling1D(2)(cnn)
…
